{"class_name": "Model", "keras_version": "2.2.4", "config": {"layers": [{"class_name": "InputLayer", "config": {"dtype": "float32", "batch_input_shape": [null, 240, 320, 3], "name": "input_3", "sparse": false}, "inbound_nodes": [], "name": "input_3"}, {"class_name": "Conv2D", "config": {"kernel_constraint": null, "kernel_initializer": {"class_name": "VarianceScaling", "config": {"distribution": "uniform", "scale": 1.0, "seed": null, "mode": "fan_avg"}}, "name": "conv2d_1", "bias_regularizer": null, "bias_constraint": null, "activation": "linear", "trainable": true, "data_format": "channels_last", "padding": "same", "strides": [1, 1], "dilation_rate": [1, 1], "kernel_regularizer": null, "filters": 64, "bias_initializer": {"class_name": "Zeros", "config": {}}, "use_bias": true, "activity_regularizer": null, "kernel_size": [3, 3]}, "inbound_nodes": [[["input_3", 0, 0, {}]]], "name": "conv2d_1"}, {"class_name": "Conv2D", "config": {"kernel_constraint": null, "kernel_initializer": {"class_name": "VarianceScaling", "config": {"distribution": "uniform", "scale": 1.0, "seed": null, "mode": "fan_avg"}}, "name": "conv2d_2", "bias_regularizer": null, "bias_constraint": null, "activation": "linear", "trainable": true, "data_format": "channels_last", "padding": "same", "strides": [1, 1], "dilation_rate": [1, 1], "kernel_regularizer": null, "filters": 64, "bias_initializer": {"class_name": "Zeros", "config": {}}, "use_bias": true, "activity_regularizer": null, "kernel_size": [3, 3]}, "inbound_nodes": [[["conv2d_1", 0, 0, {}]]], "name": "conv2d_2"}, {"class_name": "Conv2D", "config": {"kernel_constraint": null, "kernel_initializer": {"class_name": "VarianceScaling", "config": {"distribution": "uniform", "scale": 1.0, "seed": null, "mode": "fan_avg"}}, "name": "conv2d_3", "bias_regularizer": null, "bias_constraint": null, "activation": "linear", "trainable": true, "data_format": "channels_last", "padding": "same", "strides": [1, 1], "dilation_rate": [1, 1], "kernel_regularizer": null, "filters": 64, "bias_initializer": {"class_name": "Zeros", "config": {}}, "use_bias": true, "activity_regularizer": null, "kernel_size": [3, 3]}, "inbound_nodes": [[["conv2d_2", 0, 0, {}]]], "name": "conv2d_3"}, {"class_name": "BatchNormalization", "config": {"beta_constraint": null, "gamma_initializer": {"class_name": "Ones", "config": {}}, "moving_mean_initializer": {"class_name": "Zeros", "config": {}}, "name": "batch_normalization_1", "epsilon": 0.001, "trainable": true, "moving_variance_initializer": {"class_name": "Ones", "config": {}}, "beta_initializer": {"class_name": "Zeros", "config": {}}, "scale": true, "axis": -1, "gamma_constraint": null, "gamma_regularizer": null, "beta_regularizer": null, "momentum": 0.5, "center": true}, "inbound_nodes": [[["conv2d_3", 0, 0, {}]]], "name": "batch_normalization_1"}, {"class_name": "Activation", "config": {"activation": "relu", "trainable": true, "name": "activation_1"}, "inbound_nodes": [[["batch_normalization_1", 0, 0, {}]]], "name": "activation_1"}, {"class_name": "Concatenate", "config": {"trainable": true, "name": "concatenate_1", "axis": -1}, "inbound_nodes": [[["conv2d_2", 0, 0, {}], ["activation_1", 0, 0, {}]]], "name": "concatenate_1"}, {"class_name": "Conv2D", "config": {"kernel_constraint": null, "kernel_initializer": {"class_name": "VarianceScaling", "config": {"distribution": "uniform", "scale": 1.0, "seed": null, "mode": "fan_avg"}}, "name": "conv2d_4", "bias_regularizer": null, "bias_constraint": null, "activation": "linear", "trainable": true, "data_format": "channels_last", "padding": "same", "strides": [1, 1], "dilation_rate": [1, 1], "kernel_regularizer": null, "filters": 64, "bias_initializer": {"class_name": "Zeros", "config": {}}, "use_bias": true, "activity_regularizer": null, "kernel_size": [3, 3]}, "inbound_nodes": [[["concatenate_1", 0, 0, {}]]], "name": "conv2d_4"}, {"class_name": "BatchNormalization", "config": {"beta_constraint": null, "gamma_initializer": {"class_name": "Ones", "config": {}}, "moving_mean_initializer": {"class_name": "Zeros", "config": {}}, "name": "batch_normalization_2", "epsilon": 0.001, "trainable": true, "moving_variance_initializer": {"class_name": "Ones", "config": {}}, "beta_initializer": {"class_name": "Zeros", "config": {}}, "scale": true, "axis": -1, "gamma_constraint": null, "gamma_regularizer": null, "beta_regularizer": null, "momentum": 0.5, "center": true}, "inbound_nodes": [[["conv2d_4", 0, 0, {}]]], "name": "batch_normalization_2"}, {"class_name": "Activation", "config": {"activation": "relu", "trainable": true, "name": "activation_2"}, "inbound_nodes": [[["batch_normalization_2", 0, 0, {}]]], "name": "activation_2"}, {"class_name": "Concatenate", "config": {"trainable": true, "name": "concatenate_2", "axis": -1}, "inbound_nodes": [[["concatenate_1", 0, 0, {}], ["activation_2", 0, 0, {}]]], "name": "concatenate_2"}, {"class_name": "Conv2D", "config": {"kernel_constraint": null, "kernel_initializer": {"class_name": "VarianceScaling", "config": {"distribution": "uniform", "scale": 1.0, "seed": null, "mode": "fan_avg"}}, "name": "conv2d_5", "bias_regularizer": null, "bias_constraint": null, "activation": "linear", "trainable": true, "data_format": "channels_last", "padding": "same", "strides": [1, 1], "dilation_rate": [1, 1], "kernel_regularizer": null, "filters": 64, "bias_initializer": {"class_name": "Zeros", "config": {}}, "use_bias": true, "activity_regularizer": null, "kernel_size": [3, 3]}, "inbound_nodes": [[["concatenate_2", 0, 0, {}]]], "name": "conv2d_5"}, {"class_name": "BatchNormalization", "config": {"beta_constraint": null, "gamma_initializer": {"class_name": "Ones", "config": {}}, "moving_mean_initializer": {"class_name": "Zeros", "config": {}}, "name": "batch_normalization_3", "epsilon": 0.001, "trainable": true, "moving_variance_initializer": {"class_name": "Ones", "config": {}}, "beta_initializer": {"class_name": "Zeros", "config": {}}, "scale": true, "axis": -1, "gamma_constraint": null, "gamma_regularizer": null, "beta_regularizer": null, "momentum": 0.5, "center": true}, "inbound_nodes": [[["conv2d_5", 0, 0, {}]]], "name": "batch_normalization_3"}, {"class_name": "Activation", "config": {"activation": "relu", "trainable": true, "name": "activation_3"}, "inbound_nodes": [[["batch_normalization_3", 0, 0, {}]]], "name": "activation_3"}, {"class_name": "Concatenate", "config": {"trainable": true, "name": "concatenate_3", "axis": -1}, "inbound_nodes": [[["concatenate_2", 0, 0, {}], ["activation_3", 0, 0, {}]]], "name": "concatenate_3"}, {"class_name": "Conv2D", "config": {"kernel_constraint": null, "kernel_initializer": {"class_name": "VarianceScaling", "config": {"distribution": "uniform", "scale": 1.0, "seed": null, "mode": "fan_avg"}}, "name": "conv2d_6", "bias_regularizer": null, "bias_constraint": null, "activation": "linear", "trainable": true, "data_format": "channels_last", "padding": "same", "strides": [1, 1], "dilation_rate": [1, 1], "kernel_regularizer": null, "filters": 64, "bias_initializer": {"class_name": "Zeros", "config": {}}, "use_bias": true, "activity_regularizer": null, "kernel_size": [1, 1]}, "inbound_nodes": [[["concatenate_3", 0, 0, {}]]], "name": "conv2d_6"}, {"class_name": "Add", "config": {"trainable": true, "name": "add_1"}, "inbound_nodes": [[["conv2d_6", 0, 0, {}], ["conv2d_2", 0, 0, {}]]], "name": "add_1"}, {"class_name": "Conv2D", "config": {"kernel_constraint": null, "kernel_initializer": {"class_name": "VarianceScaling", "config": {"distribution": "uniform", "scale": 1.0, "seed": null, "mode": "fan_avg"}}, "name": "conv2d_7", "bias_regularizer": null, "bias_constraint": null, "activation": "linear", "trainable": true, "data_format": "channels_last", "padding": "same", "strides": [1, 1], "dilation_rate": [1, 1], "kernel_regularizer": null, "filters": 64, "bias_initializer": {"class_name": "Zeros", "config": {}}, "use_bias": true, "activity_regularizer": null, "kernel_size": [3, 3]}, "inbound_nodes": [[["add_1", 0, 0, {}]]], "name": "conv2d_7"}, {"class_name": "BatchNormalization", "config": {"beta_constraint": null, "gamma_initializer": {"class_name": "Ones", "config": {}}, "moving_mean_initializer": {"class_name": "Zeros", "config": {}}, "name": "batch_normalization_4", "epsilon": 0.001, "trainable": true, "moving_variance_initializer": {"class_name": "Ones", "config": {}}, "beta_initializer": {"class_name": "Zeros", "config": {}}, "scale": true, "axis": -1, "gamma_constraint": null, "gamma_regularizer": null, "beta_regularizer": null, "momentum": 0.5, "center": true}, "inbound_nodes": [[["conv2d_7", 0, 0, {}]]], "name": "batch_normalization_4"}, {"class_name": "Activation", "config": {"activation": "relu", "trainable": true, "name": "activation_4"}, "inbound_nodes": [[["batch_normalization_4", 0, 0, {}]]], "name": "activation_4"}, {"class_name": "Concatenate", "config": {"trainable": true, "name": "concatenate_4", "axis": -1}, "inbound_nodes": [[["add_1", 0, 0, {}], ["activation_4", 0, 0, {}]]], "name": "concatenate_4"}, {"class_name": "Conv2D", "config": {"kernel_constraint": null, "kernel_initializer": {"class_name": "VarianceScaling", "config": {"distribution": "uniform", "scale": 1.0, "seed": null, "mode": "fan_avg"}}, "name": "conv2d_8", "bias_regularizer": null, "bias_constraint": null, "activation": "linear", "trainable": true, "data_format": "channels_last", "padding": "same", "strides": [1, 1], "dilation_rate": [1, 1], "kernel_regularizer": null, "filters": 64, "bias_initializer": {"class_name": "Zeros", "config": {}}, "use_bias": true, "activity_regularizer": null, "kernel_size": [3, 3]}, "inbound_nodes": [[["concatenate_4", 0, 0, {}]]], "name": "conv2d_8"}, {"class_name": "BatchNormalization", "config": {"beta_constraint": null, "gamma_initializer": {"class_name": "Ones", "config": {}}, "moving_mean_initializer": {"class_name": "Zeros", "config": {}}, "name": "batch_normalization_5", "epsilon": 0.001, "trainable": true, "moving_variance_initializer": {"class_name": "Ones", "config": {}}, "beta_initializer": {"class_name": "Zeros", "config": {}}, "scale": true, "axis": -1, "gamma_constraint": null, "gamma_regularizer": null, "beta_regularizer": null, "momentum": 0.5, "center": true}, "inbound_nodes": [[["conv2d_8", 0, 0, {}]]], "name": "batch_normalization_5"}, {"class_name": "Activation", "config": {"activation": "relu", "trainable": true, "name": "activation_5"}, "inbound_nodes": [[["batch_normalization_5", 0, 0, {}]]], "name": "activation_5"}, {"class_name": "Concatenate", "config": {"trainable": true, "name": "concatenate_5", "axis": -1}, "inbound_nodes": [[["concatenate_4", 0, 0, {}], ["activation_5", 0, 0, {}]]], "name": "concatenate_5"}, {"class_name": "Conv2D", "config": {"kernel_constraint": null, "kernel_initializer": {"class_name": "VarianceScaling", "config": {"distribution": "uniform", "scale": 1.0, "seed": null, "mode": "fan_avg"}}, "name": "conv2d_9", "bias_regularizer": null, "bias_constraint": null, "activation": "linear", "trainable": true, "data_format": "channels_last", "padding": "same", "strides": [1, 1], "dilation_rate": [1, 1], "kernel_regularizer": null, "filters": 64, "bias_initializer": {"class_name": "Zeros", "config": {}}, "use_bias": true, "activity_regularizer": null, "kernel_size": [3, 3]}, "inbound_nodes": [[["concatenate_5", 0, 0, {}]]], "name": "conv2d_9"}, {"class_name": "BatchNormalization", "config": {"beta_constraint": null, "gamma_initializer": {"class_name": "Ones", "config": {}}, "moving_mean_initializer": {"class_name": "Zeros", "config": {}}, "name": "batch_normalization_6", "epsilon": 0.001, "trainable": true, "moving_variance_initializer": {"class_name": "Ones", "config": {}}, "beta_initializer": {"class_name": "Zeros", "config": {}}, "scale": true, "axis": -1, "gamma_constraint": null, "gamma_regularizer": null, "beta_regularizer": null, "momentum": 0.5, "center": true}, "inbound_nodes": [[["conv2d_9", 0, 0, {}]]], "name": "batch_normalization_6"}, {"class_name": "Activation", "config": {"activation": "relu", "trainable": true, "name": "activation_6"}, "inbound_nodes": [[["batch_normalization_6", 0, 0, {}]]], "name": "activation_6"}, {"class_name": "Concatenate", "config": {"trainable": true, "name": "concatenate_6", "axis": -1}, "inbound_nodes": [[["concatenate_5", 0, 0, {}], ["activation_6", 0, 0, {}]]], "name": "concatenate_6"}, {"class_name": "Conv2D", "config": {"kernel_constraint": null, "kernel_initializer": {"class_name": "VarianceScaling", "config": {"distribution": "uniform", "scale": 1.0, "seed": null, "mode": "fan_avg"}}, "name": "conv2d_10", "bias_regularizer": null, "bias_constraint": null, "activation": "linear", "trainable": true, "data_format": "channels_last", "padding": "same", "strides": [1, 1], "dilation_rate": [1, 1], "kernel_regularizer": null, "filters": 64, "bias_initializer": {"class_name": "Zeros", "config": {}}, "use_bias": true, "activity_regularizer": null, "kernel_size": [1, 1]}, "inbound_nodes": [[["concatenate_6", 0, 0, {}]]], "name": "conv2d_10"}, {"class_name": "Add", "config": {"trainable": true, "name": "add_2"}, "inbound_nodes": [[["conv2d_10", 0, 0, {}], ["add_1", 0, 0, {}]]], "name": "add_2"}, {"class_name": "Conv2D", "config": {"kernel_constraint": null, "kernel_initializer": {"class_name": "VarianceScaling", "config": {"distribution": "uniform", "scale": 1.0, "seed": null, "mode": "fan_avg"}}, "name": "conv2d_11", "bias_regularizer": null, "bias_constraint": null, "activation": "linear", "trainable": true, "data_format": "channels_last", "padding": "same", "strides": [1, 1], "dilation_rate": [1, 1], "kernel_regularizer": null, "filters": 64, "bias_initializer": {"class_name": "Zeros", "config": {}}, "use_bias": true, "activity_regularizer": null, "kernel_size": [3, 3]}, "inbound_nodes": [[["add_2", 0, 0, {}]]], "name": "conv2d_11"}, {"class_name": "BatchNormalization", "config": {"beta_constraint": null, "gamma_initializer": {"class_name": "Ones", "config": {}}, "moving_mean_initializer": {"class_name": "Zeros", "config": {}}, "name": "batch_normalization_7", "epsilon": 0.001, "trainable": true, "moving_variance_initializer": {"class_name": "Ones", "config": {}}, "beta_initializer": {"class_name": "Zeros", "config": {}}, "scale": true, "axis": -1, "gamma_constraint": null, "gamma_regularizer": null, "beta_regularizer": null, "momentum": 0.5, "center": true}, "inbound_nodes": [[["conv2d_11", 0, 0, {}]]], "name": "batch_normalization_7"}, {"class_name": "Activation", "config": {"activation": "relu", "trainable": true, "name": "activation_7"}, "inbound_nodes": [[["batch_normalization_7", 0, 0, {}]]], "name": "activation_7"}, {"class_name": "Concatenate", "config": {"trainable": true, "name": "concatenate_8", "axis": -1}, "inbound_nodes": [[["add_2", 0, 0, {}], ["activation_7", 0, 0, {}]]], "name": "concatenate_8"}, {"class_name": "Conv2D", "config": {"kernel_constraint": null, "kernel_initializer": {"class_name": "VarianceScaling", "config": {"distribution": "uniform", "scale": 1.0, "seed": null, "mode": "fan_avg"}}, "name": "conv2d_12", "bias_regularizer": null, "bias_constraint": null, "activation": "linear", "trainable": true, "data_format": "channels_last", "padding": "same", "strides": [1, 1], "dilation_rate": [1, 1], "kernel_regularizer": null, "filters": 64, "bias_initializer": {"class_name": "Zeros", "config": {}}, "use_bias": true, "activity_regularizer": null, "kernel_size": [3, 3]}, "inbound_nodes": [[["concatenate_8", 0, 0, {}]]], "name": "conv2d_12"}, {"class_name": "BatchNormalization", "config": {"beta_constraint": null, "gamma_initializer": {"class_name": "Ones", "config": {}}, "moving_mean_initializer": {"class_name": "Zeros", "config": {}}, "name": "batch_normalization_8", "epsilon": 0.001, "trainable": true, "moving_variance_initializer": {"class_name": "Ones", "config": {}}, "beta_initializer": {"class_name": "Zeros", "config": {}}, "scale": true, "axis": -1, "gamma_constraint": null, "gamma_regularizer": null, "beta_regularizer": null, "momentum": 0.5, "center": true}, "inbound_nodes": [[["conv2d_12", 0, 0, {}]]], "name": "batch_normalization_8"}, {"class_name": "Activation", "config": {"activation": "relu", "trainable": true, "name": "activation_8"}, "inbound_nodes": [[["batch_normalization_8", 0, 0, {}]]], "name": "activation_8"}, {"class_name": "Concatenate", "config": {"trainable": true, "name": "concatenate_9", "axis": -1}, "inbound_nodes": [[["concatenate_8", 0, 0, {}], ["activation_8", 0, 0, {}]]], "name": "concatenate_9"}, {"class_name": "Conv2D", "config": {"kernel_constraint": null, "kernel_initializer": {"class_name": "VarianceScaling", "config": {"distribution": "uniform", "scale": 1.0, "seed": null, "mode": "fan_avg"}}, "name": "conv2d_13", "bias_regularizer": null, "bias_constraint": null, "activation": "linear", "trainable": true, "data_format": "channels_last", "padding": "same", "strides": [1, 1], "dilation_rate": [1, 1], "kernel_regularizer": null, "filters": 64, "bias_initializer": {"class_name": "Zeros", "config": {}}, "use_bias": true, "activity_regularizer": null, "kernel_size": [3, 3]}, "inbound_nodes": [[["concatenate_9", 0, 0, {}]]], "name": "conv2d_13"}, {"class_name": "BatchNormalization", "config": {"beta_constraint": null, "gamma_initializer": {"class_name": "Ones", "config": {}}, "moving_mean_initializer": {"class_name": "Zeros", "config": {}}, "name": "batch_normalization_9", "epsilon": 0.001, "trainable": true, "moving_variance_initializer": {"class_name": "Ones", "config": {}}, "beta_initializer": {"class_name": "Zeros", "config": {}}, "scale": true, "axis": -1, "gamma_constraint": null, "gamma_regularizer": null, "beta_regularizer": null, "momentum": 0.5, "center": true}, "inbound_nodes": [[["conv2d_13", 0, 0, {}]]], "name": "batch_normalization_9"}, {"class_name": "Activation", "config": {"activation": "relu", "trainable": true, "name": "activation_9"}, "inbound_nodes": [[["batch_normalization_9", 0, 0, {}]]], "name": "activation_9"}, {"class_name": "Concatenate", "config": {"trainable": true, "name": "concatenate_10", "axis": -1}, "inbound_nodes": [[["concatenate_9", 0, 0, {}], ["activation_9", 0, 0, {}]]], "name": "concatenate_10"}, {"class_name": "Conv2D", "config": {"kernel_constraint": null, "kernel_initializer": {"class_name": "VarianceScaling", "config": {"distribution": "uniform", "scale": 1.0, "seed": null, "mode": "fan_avg"}}, "name": "conv2d_14", "bias_regularizer": null, "bias_constraint": null, "activation": "linear", "trainable": true, "data_format": "channels_last", "padding": "same", "strides": [1, 1], "dilation_rate": [1, 1], "kernel_regularizer": null, "filters": 64, "bias_initializer": {"class_name": "Zeros", "config": {}}, "use_bias": true, "activity_regularizer": null, "kernel_size": [1, 1]}, "inbound_nodes": [[["concatenate_10", 0, 0, {}]]], "name": "conv2d_14"}, {"class_name": "Add", "config": {"trainable": true, "name": "add_3"}, "inbound_nodes": [[["conv2d_14", 0, 0, {}], ["add_2", 0, 0, {}]]], "name": "add_3"}, {"class_name": "Conv2D", "config": {"kernel_constraint": null, "kernel_initializer": {"class_name": "VarianceScaling", "config": {"distribution": "uniform", "scale": 1.0, "seed": null, "mode": "fan_avg"}}, "name": "conv2d_15", "bias_regularizer": null, "bias_constraint": null, "activation": "linear", "trainable": true, "data_format": "channels_last", "padding": "same", "strides": [1, 1], "dilation_rate": [1, 1], "kernel_regularizer": null, "filters": 64, "bias_initializer": {"class_name": "Zeros", "config": {}}, "use_bias": true, "activity_regularizer": null, "kernel_size": [3, 3]}, "inbound_nodes": [[["add_3", 0, 0, {}]]], "name": "conv2d_15"}, {"class_name": "BatchNormalization", "config": {"beta_constraint": null, "gamma_initializer": {"class_name": "Ones", "config": {}}, "moving_mean_initializer": {"class_name": "Zeros", "config": {}}, "name": "batch_normalization_10", "epsilon": 0.001, "trainable": true, "moving_variance_initializer": {"class_name": "Ones", "config": {}}, "beta_initializer": {"class_name": "Zeros", "config": {}}, "scale": true, "axis": -1, "gamma_constraint": null, "gamma_regularizer": null, "beta_regularizer": null, "momentum": 0.5, "center": true}, "inbound_nodes": [[["conv2d_15", 0, 0, {}]]], "name": "batch_normalization_10"}, {"class_name": "Activation", "config": {"activation": "relu", "trainable": true, "name": "activation_10"}, "inbound_nodes": [[["batch_normalization_10", 0, 0, {}]]], "name": "activation_10"}, {"class_name": "Concatenate", "config": {"trainable": true, "name": "concatenate_12", "axis": -1}, "inbound_nodes": [[["add_3", 0, 0, {}], ["activation_10", 0, 0, {}]]], "name": "concatenate_12"}, {"class_name": "Conv2D", "config": {"kernel_constraint": null, "kernel_initializer": {"class_name": "VarianceScaling", "config": {"distribution": "uniform", "scale": 1.0, "seed": null, "mode": "fan_avg"}}, "name": "conv2d_16", "bias_regularizer": null, "bias_constraint": null, "activation": "linear", "trainable": true, "data_format": "channels_last", "padding": "same", "strides": [1, 1], "dilation_rate": [1, 1], "kernel_regularizer": null, "filters": 64, "bias_initializer": {"class_name": "Zeros", "config": {}}, "use_bias": true, "activity_regularizer": null, "kernel_size": [3, 3]}, "inbound_nodes": [[["concatenate_12", 0, 0, {}]]], "name": "conv2d_16"}, {"class_name": "BatchNormalization", "config": {"beta_constraint": null, "gamma_initializer": {"class_name": "Ones", "config": {}}, "moving_mean_initializer": {"class_name": "Zeros", "config": {}}, "name": "batch_normalization_11", "epsilon": 0.001, "trainable": true, "moving_variance_initializer": {"class_name": "Ones", "config": {}}, "beta_initializer": {"class_name": "Zeros", "config": {}}, "scale": true, "axis": -1, "gamma_constraint": null, "gamma_regularizer": null, "beta_regularizer": null, "momentum": 0.5, "center": true}, "inbound_nodes": [[["conv2d_16", 0, 0, {}]]], "name": "batch_normalization_11"}, {"class_name": "Activation", "config": {"activation": "relu", "trainable": true, "name": "activation_11"}, "inbound_nodes": [[["batch_normalization_11", 0, 0, {}]]], "name": "activation_11"}, {"class_name": "Concatenate", "config": {"trainable": true, "name": "concatenate_13", "axis": -1}, "inbound_nodes": [[["concatenate_12", 0, 0, {}], ["activation_11", 0, 0, {}]]], "name": "concatenate_13"}, {"class_name": "Conv2D", "config": {"kernel_constraint": null, "kernel_initializer": {"class_name": "VarianceScaling", "config": {"distribution": "uniform", "scale": 1.0, "seed": null, "mode": "fan_avg"}}, "name": "conv2d_17", "bias_regularizer": null, "bias_constraint": null, "activation": "linear", "trainable": true, "data_format": "channels_last", "padding": "same", "strides": [1, 1], "dilation_rate": [1, 1], "kernel_regularizer": null, "filters": 64, "bias_initializer": {"class_name": "Zeros", "config": {}}, "use_bias": true, "activity_regularizer": null, "kernel_size": [3, 3]}, "inbound_nodes": [[["concatenate_13", 0, 0, {}]]], "name": "conv2d_17"}, {"class_name": "BatchNormalization", "config": {"beta_constraint": null, "gamma_initializer": {"class_name": "Ones", "config": {}}, "moving_mean_initializer": {"class_name": "Zeros", "config": {}}, "name": "batch_normalization_12", "epsilon": 0.001, "trainable": true, "moving_variance_initializer": {"class_name": "Ones", "config": {}}, "beta_initializer": {"class_name": "Zeros", "config": {}}, "scale": true, "axis": -1, "gamma_constraint": null, "gamma_regularizer": null, "beta_regularizer": null, "momentum": 0.5, "center": true}, "inbound_nodes": [[["conv2d_17", 0, 0, {}]]], "name": "batch_normalization_12"}, {"class_name": "Activation", "config": {"activation": "relu", "trainable": true, "name": "activation_12"}, "inbound_nodes": [[["batch_normalization_12", 0, 0, {}]]], "name": "activation_12"}, {"class_name": "Concatenate", "config": {"trainable": true, "name": "concatenate_14", "axis": -1}, "inbound_nodes": [[["concatenate_13", 0, 0, {}], ["activation_12", 0, 0, {}]]], "name": "concatenate_14"}, {"class_name": "Conv2D", "config": {"kernel_constraint": null, "kernel_initializer": {"class_name": "VarianceScaling", "config": {"distribution": "uniform", "scale": 1.0, "seed": null, "mode": "fan_avg"}}, "name": "conv2d_18", "bias_regularizer": null, "bias_constraint": null, "activation": "linear", "trainable": true, "data_format": "channels_last", "padding": "same", "strides": [1, 1], "dilation_rate": [1, 1], "kernel_regularizer": null, "filters": 64, "bias_initializer": {"class_name": "Zeros", "config": {}}, "use_bias": true, "activity_regularizer": null, "kernel_size": [1, 1]}, "inbound_nodes": [[["concatenate_14", 0, 0, {}]]], "name": "conv2d_18"}, {"class_name": "Add", "config": {"trainable": true, "name": "add_4"}, "inbound_nodes": [[["conv2d_18", 0, 0, {}], ["add_3", 0, 0, {}]]], "name": "add_4"}, {"class_name": "Conv2D", "config": {"kernel_constraint": null, "kernel_initializer": {"class_name": "VarianceScaling", "config": {"distribution": "uniform", "scale": 1.0, "seed": null, "mode": "fan_avg"}}, "name": "conv2d_19", "bias_regularizer": null, "bias_constraint": null, "activation": "linear", "trainable": true, "data_format": "channels_last", "padding": "same", "strides": [1, 1], "dilation_rate": [1, 1], "kernel_regularizer": null, "filters": 64, "bias_initializer": {"class_name": "Zeros", "config": {}}, "use_bias": true, "activity_regularizer": null, "kernel_size": [3, 3]}, "inbound_nodes": [[["add_4", 0, 0, {}]]], "name": "conv2d_19"}, {"class_name": "BatchNormalization", "config": {"beta_constraint": null, "gamma_initializer": {"class_name": "Ones", "config": {}}, "moving_mean_initializer": {"class_name": "Zeros", "config": {}}, "name": "batch_normalization_13", "epsilon": 0.001, "trainable": true, "moving_variance_initializer": {"class_name": "Ones", "config": {}}, "beta_initializer": {"class_name": "Zeros", "config": {}}, "scale": true, "axis": -1, "gamma_constraint": null, "gamma_regularizer": null, "beta_regularizer": null, "momentum": 0.5, "center": true}, "inbound_nodes": [[["conv2d_19", 0, 0, {}]]], "name": "batch_normalization_13"}, {"class_name": "Activation", "config": {"activation": "relu", "trainable": true, "name": "activation_13"}, "inbound_nodes": [[["batch_normalization_13", 0, 0, {}]]], "name": "activation_13"}, {"class_name": "Concatenate", "config": {"trainable": true, "name": "concatenate_16", "axis": -1}, "inbound_nodes": [[["add_4", 0, 0, {}], ["activation_13", 0, 0, {}]]], "name": "concatenate_16"}, {"class_name": "Conv2D", "config": {"kernel_constraint": null, "kernel_initializer": {"class_name": "VarianceScaling", "config": {"distribution": "uniform", "scale": 1.0, "seed": null, "mode": "fan_avg"}}, "name": "conv2d_20", "bias_regularizer": null, "bias_constraint": null, "activation": "linear", "trainable": true, "data_format": "channels_last", "padding": "same", "strides": [1, 1], "dilation_rate": [1, 1], "kernel_regularizer": null, "filters": 64, "bias_initializer": {"class_name": "Zeros", "config": {}}, "use_bias": true, "activity_regularizer": null, "kernel_size": [3, 3]}, "inbound_nodes": [[["concatenate_16", 0, 0, {}]]], "name": "conv2d_20"}, {"class_name": "BatchNormalization", "config": {"beta_constraint": null, "gamma_initializer": {"class_name": "Ones", "config": {}}, "moving_mean_initializer": {"class_name": "Zeros", "config": {}}, "name": "batch_normalization_14", "epsilon": 0.001, "trainable": true, "moving_variance_initializer": {"class_name": "Ones", "config": {}}, "beta_initializer": {"class_name": "Zeros", "config": {}}, "scale": true, "axis": -1, "gamma_constraint": null, "gamma_regularizer": null, "beta_regularizer": null, "momentum": 0.5, "center": true}, "inbound_nodes": [[["conv2d_20", 0, 0, {}]]], "name": "batch_normalization_14"}, {"class_name": "Activation", "config": {"activation": "relu", "trainable": true, "name": "activation_14"}, "inbound_nodes": [[["batch_normalization_14", 0, 0, {}]]], "name": "activation_14"}, {"class_name": "Concatenate", "config": {"trainable": true, "name": "concatenate_17", "axis": -1}, "inbound_nodes": [[["concatenate_16", 0, 0, {}], ["activation_14", 0, 0, {}]]], "name": "concatenate_17"}, {"class_name": "Conv2D", "config": {"kernel_constraint": null, "kernel_initializer": {"class_name": "VarianceScaling", "config": {"distribution": "uniform", "scale": 1.0, "seed": null, "mode": "fan_avg"}}, "name": "conv2d_21", "bias_regularizer": null, "bias_constraint": null, "activation": "linear", "trainable": true, "data_format": "channels_last", "padding": "same", "strides": [1, 1], "dilation_rate": [1, 1], "kernel_regularizer": null, "filters": 64, "bias_initializer": {"class_name": "Zeros", "config": {}}, "use_bias": true, "activity_regularizer": null, "kernel_size": [3, 3]}, "inbound_nodes": [[["concatenate_17", 0, 0, {}]]], "name": "conv2d_21"}, {"class_name": "BatchNormalization", "config": {"beta_constraint": null, "gamma_initializer": {"class_name": "Ones", "config": {}}, "moving_mean_initializer": {"class_name": "Zeros", "config": {}}, "name": "batch_normalization_15", "epsilon": 0.001, "trainable": true, "moving_variance_initializer": {"class_name": "Ones", "config": {}}, "beta_initializer": {"class_name": "Zeros", "config": {}}, "scale": true, "axis": -1, "gamma_constraint": null, "gamma_regularizer": null, "beta_regularizer": null, "momentum": 0.5, "center": true}, "inbound_nodes": [[["conv2d_21", 0, 0, {}]]], "name": "batch_normalization_15"}, {"class_name": "Activation", "config": {"activation": "relu", "trainable": true, "name": "activation_15"}, "inbound_nodes": [[["batch_normalization_15", 0, 0, {}]]], "name": "activation_15"}, {"class_name": "Concatenate", "config": {"trainable": true, "name": "concatenate_18", "axis": -1}, "inbound_nodes": [[["concatenate_17", 0, 0, {}], ["activation_15", 0, 0, {}]]], "name": "concatenate_18"}, {"class_name": "Conv2D", "config": {"kernel_constraint": null, "kernel_initializer": {"class_name": "VarianceScaling", "config": {"distribution": "uniform", "scale": 1.0, "seed": null, "mode": "fan_avg"}}, "name": "conv2d_22", "bias_regularizer": null, "bias_constraint": null, "activation": "linear", "trainable": true, "data_format": "channels_last", "padding": "same", "strides": [1, 1], "dilation_rate": [1, 1], "kernel_regularizer": null, "filters": 64, "bias_initializer": {"class_name": "Zeros", "config": {}}, "use_bias": true, "activity_regularizer": null, "kernel_size": [1, 1]}, "inbound_nodes": [[["concatenate_18", 0, 0, {}]]], "name": "conv2d_22"}, {"class_name": "Add", "config": {"trainable": true, "name": "add_5"}, "inbound_nodes": [[["conv2d_22", 0, 0, {}], ["add_4", 0, 0, {}]]], "name": "add_5"}, {"class_name": "Conv2D", "config": {"kernel_constraint": null, "kernel_initializer": {"class_name": "VarianceScaling", "config": {"distribution": "uniform", "scale": 1.0, "seed": null, "mode": "fan_avg"}}, "name": "conv2d_23", "bias_regularizer": null, "bias_constraint": null, "activation": "linear", "trainable": true, "data_format": "channels_last", "padding": "same", "strides": [1, 1], "dilation_rate": [1, 1], "kernel_regularizer": null, "filters": 64, "bias_initializer": {"class_name": "Zeros", "config": {}}, "use_bias": true, "activity_regularizer": null, "kernel_size": [3, 3]}, "inbound_nodes": [[["add_5", 0, 0, {}]]], "name": "conv2d_23"}, {"class_name": "BatchNormalization", "config": {"beta_constraint": null, "gamma_initializer": {"class_name": "Ones", "config": {}}, "moving_mean_initializer": {"class_name": "Zeros", "config": {}}, "name": "batch_normalization_16", "epsilon": 0.001, "trainable": true, "moving_variance_initializer": {"class_name": "Ones", "config": {}}, "beta_initializer": {"class_name": "Zeros", "config": {}}, "scale": true, "axis": -1, "gamma_constraint": null, "gamma_regularizer": null, "beta_regularizer": null, "momentum": 0.5, "center": true}, "inbound_nodes": [[["conv2d_23", 0, 0, {}]]], "name": "batch_normalization_16"}, {"class_name": "Activation", "config": {"activation": "relu", "trainable": true, "name": "activation_16"}, "inbound_nodes": [[["batch_normalization_16", 0, 0, {}]]], "name": "activation_16"}, {"class_name": "Concatenate", "config": {"trainable": true, "name": "concatenate_20", "axis": -1}, "inbound_nodes": [[["add_5", 0, 0, {}], ["activation_16", 0, 0, {}]]], "name": "concatenate_20"}, {"class_name": "Conv2D", "config": {"kernel_constraint": null, "kernel_initializer": {"class_name": "VarianceScaling", "config": {"distribution": "uniform", "scale": 1.0, "seed": null, "mode": "fan_avg"}}, "name": "conv2d_24", "bias_regularizer": null, "bias_constraint": null, "activation": "linear", "trainable": true, "data_format": "channels_last", "padding": "same", "strides": [1, 1], "dilation_rate": [1, 1], "kernel_regularizer": null, "filters": 64, "bias_initializer": {"class_name": "Zeros", "config": {}}, "use_bias": true, "activity_regularizer": null, "kernel_size": [3, 3]}, "inbound_nodes": [[["concatenate_20", 0, 0, {}]]], "name": "conv2d_24"}, {"class_name": "BatchNormalization", "config": {"beta_constraint": null, "gamma_initializer": {"class_name": "Ones", "config": {}}, "moving_mean_initializer": {"class_name": "Zeros", "config": {}}, "name": "batch_normalization_17", "epsilon": 0.001, "trainable": true, "moving_variance_initializer": {"class_name": "Ones", "config": {}}, "beta_initializer": {"class_name": "Zeros", "config": {}}, "scale": true, "axis": -1, "gamma_constraint": null, "gamma_regularizer": null, "beta_regularizer": null, "momentum": 0.5, "center": true}, "inbound_nodes": [[["conv2d_24", 0, 0, {}]]], "name": "batch_normalization_17"}, {"class_name": "Activation", "config": {"activation": "relu", "trainable": true, "name": "activation_17"}, "inbound_nodes": [[["batch_normalization_17", 0, 0, {}]]], "name": "activation_17"}, {"class_name": "Concatenate", "config": {"trainable": true, "name": "concatenate_21", "axis": -1}, "inbound_nodes": [[["concatenate_20", 0, 0, {}], ["activation_17", 0, 0, {}]]], "name": "concatenate_21"}, {"class_name": "Conv2D", "config": {"kernel_constraint": null, "kernel_initializer": {"class_name": "VarianceScaling", "config": {"distribution": "uniform", "scale": 1.0, "seed": null, "mode": "fan_avg"}}, "name": "conv2d_25", "bias_regularizer": null, "bias_constraint": null, "activation": "linear", "trainable": true, "data_format": "channels_last", "padding": "same", "strides": [1, 1], "dilation_rate": [1, 1], "kernel_regularizer": null, "filters": 64, "bias_initializer": {"class_name": "Zeros", "config": {}}, "use_bias": true, "activity_regularizer": null, "kernel_size": [3, 3]}, "inbound_nodes": [[["concatenate_21", 0, 0, {}]]], "name": "conv2d_25"}, {"class_name": "BatchNormalization", "config": {"beta_constraint": null, "gamma_initializer": {"class_name": "Ones", "config": {}}, "moving_mean_initializer": {"class_name": "Zeros", "config": {}}, "name": "batch_normalization_18", "epsilon": 0.001, "trainable": true, "moving_variance_initializer": {"class_name": "Ones", "config": {}}, "beta_initializer": {"class_name": "Zeros", "config": {}}, "scale": true, "axis": -1, "gamma_constraint": null, "gamma_regularizer": null, "beta_regularizer": null, "momentum": 0.5, "center": true}, "inbound_nodes": [[["conv2d_25", 0, 0, {}]]], "name": "batch_normalization_18"}, {"class_name": "Activation", "config": {"activation": "relu", "trainable": true, "name": "activation_18"}, "inbound_nodes": [[["batch_normalization_18", 0, 0, {}]]], "name": "activation_18"}, {"class_name": "Concatenate", "config": {"trainable": true, "name": "concatenate_22", "axis": -1}, "inbound_nodes": [[["concatenate_21", 0, 0, {}], ["activation_18", 0, 0, {}]]], "name": "concatenate_22"}, {"class_name": "Conv2D", "config": {"kernel_constraint": null, "kernel_initializer": {"class_name": "VarianceScaling", "config": {"distribution": "uniform", "scale": 1.0, "seed": null, "mode": "fan_avg"}}, "name": "conv2d_26", "bias_regularizer": null, "bias_constraint": null, "activation": "linear", "trainable": true, "data_format": "channels_last", "padding": "same", "strides": [1, 1], "dilation_rate": [1, 1], "kernel_regularizer": null, "filters": 64, "bias_initializer": {"class_name": "Zeros", "config": {}}, "use_bias": true, "activity_regularizer": null, "kernel_size": [1, 1]}, "inbound_nodes": [[["concatenate_22", 0, 0, {}]]], "name": "conv2d_26"}, {"class_name": "Add", "config": {"trainable": true, "name": "add_6"}, "inbound_nodes": [[["conv2d_26", 0, 0, {}], ["add_5", 0, 0, {}]]], "name": "add_6"}, {"class_name": "Conv2D", "config": {"kernel_constraint": null, "kernel_initializer": {"class_name": "VarianceScaling", "config": {"distribution": "uniform", "scale": 1.0, "seed": null, "mode": "fan_avg"}}, "name": "conv2d_27", "bias_regularizer": null, "bias_constraint": null, "activation": "linear", "trainable": true, "data_format": "channels_last", "padding": "same", "strides": [1, 1], "dilation_rate": [1, 1], "kernel_regularizer": null, "filters": 64, "bias_initializer": {"class_name": "Zeros", "config": {}}, "use_bias": true, "activity_regularizer": null, "kernel_size": [3, 3]}, "inbound_nodes": [[["add_6", 0, 0, {}]]], "name": "conv2d_27"}, {"class_name": "BatchNormalization", "config": {"beta_constraint": null, "gamma_initializer": {"class_name": "Ones", "config": {}}, "moving_mean_initializer": {"class_name": "Zeros", "config": {}}, "name": "batch_normalization_19", "epsilon": 0.001, "trainable": true, "moving_variance_initializer": {"class_name": "Ones", "config": {}}, "beta_initializer": {"class_name": "Zeros", "config": {}}, "scale": true, "axis": -1, "gamma_constraint": null, "gamma_regularizer": null, "beta_regularizer": null, "momentum": 0.5, "center": true}, "inbound_nodes": [[["conv2d_27", 0, 0, {}]]], "name": "batch_normalization_19"}, {"class_name": "Activation", "config": {"activation": "relu", "trainable": true, "name": "activation_19"}, "inbound_nodes": [[["batch_normalization_19", 0, 0, {}]]], "name": "activation_19"}, {"class_name": "Concatenate", "config": {"trainable": true, "name": "concatenate_24", "axis": -1}, "inbound_nodes": [[["add_6", 0, 0, {}], ["activation_19", 0, 0, {}]]], "name": "concatenate_24"}, {"class_name": "Conv2D", "config": {"kernel_constraint": null, "kernel_initializer": {"class_name": "VarianceScaling", "config": {"distribution": "uniform", "scale": 1.0, "seed": null, "mode": "fan_avg"}}, "name": "conv2d_28", "bias_regularizer": null, "bias_constraint": null, "activation": "linear", "trainable": true, "data_format": "channels_last", "padding": "same", "strides": [1, 1], "dilation_rate": [1, 1], "kernel_regularizer": null, "filters": 64, "bias_initializer": {"class_name": "Zeros", "config": {}}, "use_bias": true, "activity_regularizer": null, "kernel_size": [3, 3]}, "inbound_nodes": [[["concatenate_24", 0, 0, {}]]], "name": "conv2d_28"}, {"class_name": "BatchNormalization", "config": {"beta_constraint": null, "gamma_initializer": {"class_name": "Ones", "config": {}}, "moving_mean_initializer": {"class_name": "Zeros", "config": {}}, "name": "batch_normalization_20", "epsilon": 0.001, "trainable": true, "moving_variance_initializer": {"class_name": "Ones", "config": {}}, "beta_initializer": {"class_name": "Zeros", "config": {}}, "scale": true, "axis": -1, "gamma_constraint": null, "gamma_regularizer": null, "beta_regularizer": null, "momentum": 0.5, "center": true}, "inbound_nodes": [[["conv2d_28", 0, 0, {}]]], "name": "batch_normalization_20"}, {"class_name": "Activation", "config": {"activation": "relu", "trainable": true, "name": "activation_20"}, "inbound_nodes": [[["batch_normalization_20", 0, 0, {}]]], "name": "activation_20"}, {"class_name": "Concatenate", "config": {"trainable": true, "name": "concatenate_25", "axis": -1}, "inbound_nodes": [[["concatenate_24", 0, 0, {}], ["activation_20", 0, 0, {}]]], "name": "concatenate_25"}, {"class_name": "Conv2D", "config": {"kernel_constraint": null, "kernel_initializer": {"class_name": "VarianceScaling", "config": {"distribution": "uniform", "scale": 1.0, "seed": null, "mode": "fan_avg"}}, "name": "conv2d_29", "bias_regularizer": null, "bias_constraint": null, "activation": "linear", "trainable": true, "data_format": "channels_last", "padding": "same", "strides": [1, 1], "dilation_rate": [1, 1], "kernel_regularizer": null, "filters": 64, "bias_initializer": {"class_name": "Zeros", "config": {}}, "use_bias": true, "activity_regularizer": null, "kernel_size": [3, 3]}, "inbound_nodes": [[["concatenate_25", 0, 0, {}]]], "name": "conv2d_29"}, {"class_name": "BatchNormalization", "config": {"beta_constraint": null, "gamma_initializer": {"class_name": "Ones", "config": {}}, "moving_mean_initializer": {"class_name": "Zeros", "config": {}}, "name": "batch_normalization_21", "epsilon": 0.001, "trainable": true, "moving_variance_initializer": {"class_name": "Ones", "config": {}}, "beta_initializer": {"class_name": "Zeros", "config": {}}, "scale": true, "axis": -1, "gamma_constraint": null, "gamma_regularizer": null, "beta_regularizer": null, "momentum": 0.5, "center": true}, "inbound_nodes": [[["conv2d_29", 0, 0, {}]]], "name": "batch_normalization_21"}, {"class_name": "Activation", "config": {"activation": "relu", "trainable": true, "name": "activation_21"}, "inbound_nodes": [[["batch_normalization_21", 0, 0, {}]]], "name": "activation_21"}, {"class_name": "Concatenate", "config": {"trainable": true, "name": "concatenate_26", "axis": -1}, "inbound_nodes": [[["concatenate_25", 0, 0, {}], ["activation_21", 0, 0, {}]]], "name": "concatenate_26"}, {"class_name": "Conv2D", "config": {"kernel_constraint": null, "kernel_initializer": {"class_name": "VarianceScaling", "config": {"distribution": "uniform", "scale": 1.0, "seed": null, "mode": "fan_avg"}}, "name": "conv2d_30", "bias_regularizer": null, "bias_constraint": null, "activation": "linear", "trainable": true, "data_format": "channels_last", "padding": "same", "strides": [1, 1], "dilation_rate": [1, 1], "kernel_regularizer": null, "filters": 64, "bias_initializer": {"class_name": "Zeros", "config": {}}, "use_bias": true, "activity_regularizer": null, "kernel_size": [1, 1]}, "inbound_nodes": [[["concatenate_26", 0, 0, {}]]], "name": "conv2d_30"}, {"class_name": "Add", "config": {"trainable": true, "name": "add_7"}, "inbound_nodes": [[["conv2d_30", 0, 0, {}], ["add_6", 0, 0, {}]]], "name": "add_7"}, {"class_name": "Conv2D", "config": {"kernel_constraint": null, "kernel_initializer": {"class_name": "VarianceScaling", "config": {"distribution": "uniform", "scale": 1.0, "seed": null, "mode": "fan_avg"}}, "name": "conv2d_31", "bias_regularizer": null, "bias_constraint": null, "activation": "linear", "trainable": true, "data_format": "channels_last", "padding": "same", "strides": [1, 1], "dilation_rate": [1, 1], "kernel_regularizer": null, "filters": 64, "bias_initializer": {"class_name": "Zeros", "config": {}}, "use_bias": true, "activity_regularizer": null, "kernel_size": [3, 3]}, "inbound_nodes": [[["add_7", 0, 0, {}]]], "name": "conv2d_31"}, {"class_name": "BatchNormalization", "config": {"beta_constraint": null, "gamma_initializer": {"class_name": "Ones", "config": {}}, "moving_mean_initializer": {"class_name": "Zeros", "config": {}}, "name": "batch_normalization_22", "epsilon": 0.001, "trainable": true, "moving_variance_initializer": {"class_name": "Ones", "config": {}}, "beta_initializer": {"class_name": "Zeros", "config": {}}, "scale": true, "axis": -1, "gamma_constraint": null, "gamma_regularizer": null, "beta_regularizer": null, "momentum": 0.5, "center": true}, "inbound_nodes": [[["conv2d_31", 0, 0, {}]]], "name": "batch_normalization_22"}, {"class_name": "Activation", "config": {"activation": "relu", "trainable": true, "name": "activation_22"}, "inbound_nodes": [[["batch_normalization_22", 0, 0, {}]]], "name": "activation_22"}, {"class_name": "Concatenate", "config": {"trainable": true, "name": "concatenate_28", "axis": -1}, "inbound_nodes": [[["add_7", 0, 0, {}], ["activation_22", 0, 0, {}]]], "name": "concatenate_28"}, {"class_name": "Conv2D", "config": {"kernel_constraint": null, "kernel_initializer": {"class_name": "VarianceScaling", "config": {"distribution": "uniform", "scale": 1.0, "seed": null, "mode": "fan_avg"}}, "name": "conv2d_32", "bias_regularizer": null, "bias_constraint": null, "activation": "linear", "trainable": true, "data_format": "channels_last", "padding": "same", "strides": [1, 1], "dilation_rate": [1, 1], "kernel_regularizer": null, "filters": 64, "bias_initializer": {"class_name": "Zeros", "config": {}}, "use_bias": true, "activity_regularizer": null, "kernel_size": [3, 3]}, "inbound_nodes": [[["concatenate_28", 0, 0, {}]]], "name": "conv2d_32"}, {"class_name": "BatchNormalization", "config": {"beta_constraint": null, "gamma_initializer": {"class_name": "Ones", "config": {}}, "moving_mean_initializer": {"class_name": "Zeros", "config": {}}, "name": "batch_normalization_23", "epsilon": 0.001, "trainable": true, "moving_variance_initializer": {"class_name": "Ones", "config": {}}, "beta_initializer": {"class_name": "Zeros", "config": {}}, "scale": true, "axis": -1, "gamma_constraint": null, "gamma_regularizer": null, "beta_regularizer": null, "momentum": 0.5, "center": true}, "inbound_nodes": [[["conv2d_32", 0, 0, {}]]], "name": "batch_normalization_23"}, {"class_name": "Activation", "config": {"activation": "relu", "trainable": true, "name": "activation_23"}, "inbound_nodes": [[["batch_normalization_23", 0, 0, {}]]], "name": "activation_23"}, {"class_name": "Concatenate", "config": {"trainable": true, "name": "concatenate_29", "axis": -1}, "inbound_nodes": [[["concatenate_28", 0, 0, {}], ["activation_23", 0, 0, {}]]], "name": "concatenate_29"}, {"class_name": "Conv2D", "config": {"kernel_constraint": null, "kernel_initializer": {"class_name": "VarianceScaling", "config": {"distribution": "uniform", "scale": 1.0, "seed": null, "mode": "fan_avg"}}, "name": "conv2d_33", "bias_regularizer": null, "bias_constraint": null, "activation": "linear", "trainable": true, "data_format": "channels_last", "padding": "same", "strides": [1, 1], "dilation_rate": [1, 1], "kernel_regularizer": null, "filters": 64, "bias_initializer": {"class_name": "Zeros", "config": {}}, "use_bias": true, "activity_regularizer": null, "kernel_size": [3, 3]}, "inbound_nodes": [[["concatenate_29", 0, 0, {}]]], "name": "conv2d_33"}, {"class_name": "BatchNormalization", "config": {"beta_constraint": null, "gamma_initializer": {"class_name": "Ones", "config": {}}, "moving_mean_initializer": {"class_name": "Zeros", "config": {}}, "name": "batch_normalization_24", "epsilon": 0.001, "trainable": true, "moving_variance_initializer": {"class_name": "Ones", "config": {}}, "beta_initializer": {"class_name": "Zeros", "config": {}}, "scale": true, "axis": -1, "gamma_constraint": null, "gamma_regularizer": null, "beta_regularizer": null, "momentum": 0.5, "center": true}, "inbound_nodes": [[["conv2d_33", 0, 0, {}]]], "name": "batch_normalization_24"}, {"class_name": "Activation", "config": {"activation": "relu", "trainable": true, "name": "activation_24"}, "inbound_nodes": [[["batch_normalization_24", 0, 0, {}]]], "name": "activation_24"}, {"class_name": "Concatenate", "config": {"trainable": true, "name": "concatenate_30", "axis": -1}, "inbound_nodes": [[["concatenate_29", 0, 0, {}], ["activation_24", 0, 0, {}]]], "name": "concatenate_30"}, {"class_name": "Conv2D", "config": {"kernel_constraint": null, "kernel_initializer": {"class_name": "VarianceScaling", "config": {"distribution": "uniform", "scale": 1.0, "seed": null, "mode": "fan_avg"}}, "name": "conv2d_34", "bias_regularizer": null, "bias_constraint": null, "activation": "linear", "trainable": true, "data_format": "channels_last", "padding": "same", "strides": [1, 1], "dilation_rate": [1, 1], "kernel_regularizer": null, "filters": 64, "bias_initializer": {"class_name": "Zeros", "config": {}}, "use_bias": true, "activity_regularizer": null, "kernel_size": [1, 1]}, "inbound_nodes": [[["concatenate_30", 0, 0, {}]]], "name": "conv2d_34"}, {"class_name": "Add", "config": {"trainable": true, "name": "add_8"}, "inbound_nodes": [[["conv2d_34", 0, 0, {}], ["add_7", 0, 0, {}]]], "name": "add_8"}, {"class_name": "Conv2D", "config": {"kernel_constraint": null, "kernel_initializer": {"class_name": "VarianceScaling", "config": {"distribution": "uniform", "scale": 1.0, "seed": null, "mode": "fan_avg"}}, "name": "conv2d_35", "bias_regularizer": null, "bias_constraint": null, "activation": "linear", "trainable": true, "data_format": "channels_last", "padding": "same", "strides": [1, 1], "dilation_rate": [1, 1], "kernel_regularizer": null, "filters": 64, "bias_initializer": {"class_name": "Zeros", "config": {}}, "use_bias": true, "activity_regularizer": null, "kernel_size": [3, 3]}, "inbound_nodes": [[["add_8", 0, 0, {}]]], "name": "conv2d_35"}, {"class_name": "BatchNormalization", "config": {"beta_constraint": null, "gamma_initializer": {"class_name": "Ones", "config": {}}, "moving_mean_initializer": {"class_name": "Zeros", "config": {}}, "name": "batch_normalization_25", "epsilon": 0.001, "trainable": true, "moving_variance_initializer": {"class_name": "Ones", "config": {}}, "beta_initializer": {"class_name": "Zeros", "config": {}}, "scale": true, "axis": -1, "gamma_constraint": null, "gamma_regularizer": null, "beta_regularizer": null, "momentum": 0.5, "center": true}, "inbound_nodes": [[["conv2d_35", 0, 0, {}]]], "name": "batch_normalization_25"}, {"class_name": "Activation", "config": {"activation": "relu", "trainable": true, "name": "activation_25"}, "inbound_nodes": [[["batch_normalization_25", 0, 0, {}]]], "name": "activation_25"}, {"class_name": "Concatenate", "config": {"trainable": true, "name": "concatenate_32", "axis": -1}, "inbound_nodes": [[["add_8", 0, 0, {}], ["activation_25", 0, 0, {}]]], "name": "concatenate_32"}, {"class_name": "Conv2D", "config": {"kernel_constraint": null, "kernel_initializer": {"class_name": "VarianceScaling", "config": {"distribution": "uniform", "scale": 1.0, "seed": null, "mode": "fan_avg"}}, "name": "conv2d_36", "bias_regularizer": null, "bias_constraint": null, "activation": "linear", "trainable": true, "data_format": "channels_last", "padding": "same", "strides": [1, 1], "dilation_rate": [1, 1], "kernel_regularizer": null, "filters": 64, "bias_initializer": {"class_name": "Zeros", "config": {}}, "use_bias": true, "activity_regularizer": null, "kernel_size": [3, 3]}, "inbound_nodes": [[["concatenate_32", 0, 0, {}]]], "name": "conv2d_36"}, {"class_name": "BatchNormalization", "config": {"beta_constraint": null, "gamma_initializer": {"class_name": "Ones", "config": {}}, "moving_mean_initializer": {"class_name": "Zeros", "config": {}}, "name": "batch_normalization_26", "epsilon": 0.001, "trainable": true, "moving_variance_initializer": {"class_name": "Ones", "config": {}}, "beta_initializer": {"class_name": "Zeros", "config": {}}, "scale": true, "axis": -1, "gamma_constraint": null, "gamma_regularizer": null, "beta_regularizer": null, "momentum": 0.5, "center": true}, "inbound_nodes": [[["conv2d_36", 0, 0, {}]]], "name": "batch_normalization_26"}, {"class_name": "Activation", "config": {"activation": "relu", "trainable": true, "name": "activation_26"}, "inbound_nodes": [[["batch_normalization_26", 0, 0, {}]]], "name": "activation_26"}, {"class_name": "Concatenate", "config": {"trainable": true, "name": "concatenate_7", "axis": -1}, "inbound_nodes": [[["add_1", 0, 0, {}], ["add_2", 0, 0, {}]]], "name": "concatenate_7"}, {"class_name": "Concatenate", "config": {"trainable": true, "name": "concatenate_33", "axis": -1}, "inbound_nodes": [[["concatenate_32", 0, 0, {}], ["activation_26", 0, 0, {}]]], "name": "concatenate_33"}, {"class_name": "Concatenate", "config": {"trainable": true, "name": "concatenate_11", "axis": -1}, "inbound_nodes": [[["concatenate_7", 0, 0, {}], ["add_3", 0, 0, {}]]], "name": "concatenate_11"}, {"class_name": "Conv2D", "config": {"kernel_constraint": null, "kernel_initializer": {"class_name": "VarianceScaling", "config": {"distribution": "uniform", "scale": 1.0, "seed": null, "mode": "fan_avg"}}, "name": "conv2d_37", "bias_regularizer": null, "bias_constraint": null, "activation": "linear", "trainable": true, "data_format": "channels_last", "padding": "same", "strides": [1, 1], "dilation_rate": [1, 1], "kernel_regularizer": null, "filters": 64, "bias_initializer": {"class_name": "Zeros", "config": {}}, "use_bias": true, "activity_regularizer": null, "kernel_size": [3, 3]}, "inbound_nodes": [[["concatenate_33", 0, 0, {}]]], "name": "conv2d_37"}, {"class_name": "Concatenate", "config": {"trainable": true, "name": "concatenate_15", "axis": -1}, "inbound_nodes": [[["concatenate_11", 0, 0, {}], ["add_4", 0, 0, {}]]], "name": "concatenate_15"}, {"class_name": "BatchNormalization", "config": {"beta_constraint": null, "gamma_initializer": {"class_name": "Ones", "config": {}}, "moving_mean_initializer": {"class_name": "Zeros", "config": {}}, "name": "batch_normalization_27", "epsilon": 0.001, "trainable": true, "moving_variance_initializer": {"class_name": "Ones", "config": {}}, "beta_initializer": {"class_name": "Zeros", "config": {}}, "scale": true, "axis": -1, "gamma_constraint": null, "gamma_regularizer": null, "beta_regularizer": null, "momentum": 0.5, "center": true}, "inbound_nodes": [[["conv2d_37", 0, 0, {}]]], "name": "batch_normalization_27"}, {"class_name": "Concatenate", "config": {"trainable": true, "name": "concatenate_19", "axis": -1}, "inbound_nodes": [[["concatenate_15", 0, 0, {}], ["add_5", 0, 0, {}]]], "name": "concatenate_19"}, {"class_name": "Activation", "config": {"activation": "relu", "trainable": true, "name": "activation_27"}, "inbound_nodes": [[["batch_normalization_27", 0, 0, {}]]], "name": "activation_27"}, {"class_name": "Concatenate", "config": {"trainable": true, "name": "concatenate_23", "axis": -1}, "inbound_nodes": [[["concatenate_19", 0, 0, {}], ["add_6", 0, 0, {}]]], "name": "concatenate_23"}, {"class_name": "Concatenate", "config": {"trainable": true, "name": "concatenate_34", "axis": -1}, "inbound_nodes": [[["concatenate_33", 0, 0, {}], ["activation_27", 0, 0, {}]]], "name": "concatenate_34"}, {"class_name": "Concatenate", "config": {"trainable": true, "name": "concatenate_27", "axis": -1}, "inbound_nodes": [[["concatenate_23", 0, 0, {}], ["add_7", 0, 0, {}]]], "name": "concatenate_27"}, {"class_name": "Conv2D", "config": {"kernel_constraint": null, "kernel_initializer": {"class_name": "VarianceScaling", "config": {"distribution": "uniform", "scale": 1.0, "seed": null, "mode": "fan_avg"}}, "name": "conv2d_38", "bias_regularizer": null, "bias_constraint": null, "activation": "linear", "trainable": true, "data_format": "channels_last", "padding": "same", "strides": [1, 1], "dilation_rate": [1, 1], "kernel_regularizer": null, "filters": 64, "bias_initializer": {"class_name": "Zeros", "config": {}}, "use_bias": true, "activity_regularizer": null, "kernel_size": [1, 1]}, "inbound_nodes": [[["concatenate_34", 0, 0, {}]]], "name": "conv2d_38"}, {"class_name": "Concatenate", "config": {"trainable": true, "name": "concatenate_31", "axis": -1}, "inbound_nodes": [[["concatenate_27", 0, 0, {}], ["add_8", 0, 0, {}]]], "name": "concatenate_31"}, {"class_name": "Add", "config": {"trainable": true, "name": "add_9"}, "inbound_nodes": [[["conv2d_38", 0, 0, {}], ["add_8", 0, 0, {}]]], "name": "add_9"}, {"class_name": "Concatenate", "config": {"trainable": true, "name": "concatenate_35", "axis": -1}, "inbound_nodes": [[["concatenate_31", 0, 0, {}], ["add_9", 0, 0, {}]]], "name": "concatenate_35"}, {"class_name": "Conv2D", "config": {"kernel_constraint": null, "kernel_initializer": {"class_name": "VarianceScaling", "config": {"distribution": "uniform", "scale": 1.0, "seed": null, "mode": "fan_avg"}}, "name": "conv2d_39", "bias_regularizer": null, "bias_constraint": null, "activation": "linear", "trainable": true, "data_format": "channels_last", "padding": "same", "strides": [1, 1], "dilation_rate": [1, 1], "kernel_regularizer": null, "filters": 64, "bias_initializer": {"class_name": "Zeros", "config": {}}, "use_bias": true, "activity_regularizer": null, "kernel_size": [1, 1]}, "inbound_nodes": [[["concatenate_35", 0, 0, {}]]], "name": "conv2d_39"}, {"class_name": "Conv2D", "config": {"kernel_constraint": null, "kernel_initializer": {"class_name": "VarianceScaling", "config": {"distribution": "uniform", "scale": 1.0, "seed": null, "mode": "fan_avg"}}, "name": "conv2d_40", "bias_regularizer": null, "bias_constraint": null, "activation": "linear", "trainable": true, "data_format": "channels_last", "padding": "same", "strides": [1, 1], "dilation_rate": [1, 1], "kernel_regularizer": null, "filters": 64, "bias_initializer": {"class_name": "Zeros", "config": {}}, "use_bias": true, "activity_regularizer": null, "kernel_size": [1, 1]}, "inbound_nodes": [[["conv2d_39", 0, 0, {}]]], "name": "conv2d_40"}, {"class_name": "Add", "config": {"trainable": true, "name": "add_10"}, "inbound_nodes": [[["conv2d_40", 0, 0, {}], ["conv2d_1", 0, 0, {}]]], "name": "add_10"}, {"class_name": "Conv2D", "config": {"kernel_constraint": null, "kernel_initializer": {"class_name": "VarianceScaling", "config": {"distribution": "uniform", "scale": 1.0, "seed": null, "mode": "fan_avg"}}, "name": "conv2d_41", "bias_regularizer": null, "bias_constraint": null, "activation": "linear", "trainable": true, "data_format": "channels_last", "padding": "same", "strides": [1, 1], "dilation_rate": [1, 1], "kernel_regularizer": null, "filters": 128, "bias_initializer": {"class_name": "Zeros", "config": {}}, "use_bias": true, "activity_regularizer": null, "kernel_size": [1, 1]}, "inbound_nodes": [[["add_10", 0, 0, {}]]], "name": "conv2d_41"}, {"class_name": "Conv2D", "config": {"kernel_constraint": null, "kernel_initializer": {"class_name": "VarianceScaling", "config": {"distribution": "uniform", "scale": 1.0, "seed": null, "mode": "fan_avg"}}, "name": "conv2d_43", "bias_regularizer": null, "bias_constraint": null, "activation": "linear", "trainable": true, "data_format": "channels_last", "padding": "same", "strides": [1, 1], "dilation_rate": [1, 1], "kernel_regularizer": null, "filters": 64, "bias_initializer": {"class_name": "Zeros", "config": {}}, "use_bias": true, "activity_regularizer": null, "kernel_size": [1, 1]}, "inbound_nodes": [[["conv2d_41", 0, 0, {}]]], "name": "conv2d_43"}, {"class_name": "UpSampling2D", "config": {"data_format": "channels_last", "interpolation": "nearest", "trainable": true, "name": "up_sampling2d_1", "size": [2, 2]}, "inbound_nodes": [[["conv2d_43", 0, 0, {}]]], "name": "up_sampling2d_1"}, {"class_name": "Conv2D", "config": {"kernel_constraint": null, "kernel_initializer": {"class_name": "VarianceScaling", "config": {"distribution": "uniform", "scale": 1.0, "seed": null, "mode": "fan_avg"}}, "name": "conv2d_44", "bias_regularizer": null, "bias_constraint": null, "activation": "linear", "trainable": true, "data_format": "channels_last", "padding": "same", "strides": [1, 1], "dilation_rate": [1, 1], "kernel_regularizer": null, "filters": 256, "bias_initializer": {"class_name": "Zeros", "config": {}}, "use_bias": true, "activity_regularizer": null, "kernel_size": [3, 3]}, "inbound_nodes": [[["up_sampling2d_1", 0, 0, {}]]], "name": "conv2d_44"}, {"class_name": "Conv2D", "config": {"kernel_constraint": null, "kernel_initializer": {"class_name": "VarianceScaling", "config": {"distribution": "uniform", "scale": 1.0, "seed": null, "mode": "fan_avg"}}, "name": "conv2d_46", "bias_regularizer": null, "bias_constraint": null, "activation": "linear", "trainable": true, "data_format": "channels_last", "padding": "same", "strides": [1, 1], "dilation_rate": [1, 1], "kernel_regularizer": null, "filters": 64, "bias_initializer": {"class_name": "Zeros", "config": {}}, "use_bias": true, "activity_regularizer": null, "kernel_size": [3, 3]}, "inbound_nodes": [[["add_9", 0, 0, {}]]], "name": "conv2d_46"}, {"class_name": "Activation", "config": {"activation": "relu", "trainable": true, "name": "activation_28"}, "inbound_nodes": [[["conv2d_44", 0, 0, {}]]], "name": "activation_28"}, {"class_name": "Conv2D", "config": {"kernel_constraint": null, "kernel_initializer": {"class_name": "VarianceScaling", "config": {"distribution": "uniform", "scale": 1.0, "seed": null, "mode": "fan_avg"}}, "name": "conv2d_47", "bias_regularizer": null, "bias_constraint": null, "activation": "linear", "trainable": true, "data_format": "channels_last", "padding": "same", "strides": [1, 1], "dilation_rate": [1, 1], "kernel_regularizer": null, "filters": 32, "bias_initializer": {"class_name": "Zeros", "config": {}}, "use_bias": true, "activity_regularizer": null, "kernel_size": [3, 3]}, "inbound_nodes": [[["conv2d_46", 0, 0, {}]]], "name": "conv2d_47"}, {"class_name": "Conv2D", "config": {"kernel_constraint": null, "kernel_initializer": {"class_name": "VarianceScaling", "config": {"distribution": "uniform", "scale": 1.0, "seed": null, "mode": "fan_avg"}}, "name": "conv2d_42", "bias_regularizer": null, "bias_constraint": null, "activation": "tanh", "trainable": true, "data_format": "channels_last", "padding": "same", "strides": [1, 1], "dilation_rate": [1, 1], "kernel_regularizer": null, "filters": 3, "bias_initializer": {"class_name": "Zeros", "config": {}}, "use_bias": true, "activity_regularizer": null, "kernel_size": [3, 3]}, "inbound_nodes": [[["conv2d_41", 0, 0, {}]]], "name": "conv2d_42"}, {"class_name": "Conv2D", "config": {"kernel_constraint": null, "kernel_initializer": {"class_name": "VarianceScaling", "config": {"distribution": "uniform", "scale": 1.0, "seed": null, "mode": "fan_avg"}}, "name": "conv2d_45", "bias_regularizer": null, "bias_constraint": null, "activation": "tanh", "trainable": true, "data_format": "channels_last", "padding": "same", "strides": [1, 1], "dilation_rate": [1, 1], "kernel_regularizer": null, "filters": 3, "bias_initializer": {"class_name": "Zeros", "config": {}}, "use_bias": true, "activity_regularizer": null, "kernel_size": [3, 3]}, "inbound_nodes": [[["activation_28", 0, 0, {}]]], "name": "conv2d_45"}, {"class_name": "Conv2D", "config": {"kernel_constraint": null, "kernel_initializer": {"class_name": "VarianceScaling", "config": {"distribution": "uniform", "scale": 1.0, "seed": null, "mode": "fan_avg"}}, "name": "conv2d_48", "bias_regularizer": null, "bias_constraint": null, "activation": "sigmoid", "trainable": true, "data_format": "channels_last", "padding": "same", "strides": [1, 1], "dilation_rate": [1, 1], "kernel_regularizer": null, "filters": 1, "bias_initializer": {"class_name": "Zeros", "config": {}}, "use_bias": true, "activity_regularizer": null, "kernel_size": [3, 3]}, "inbound_nodes": [[["conv2d_47", 0, 0, {}]]], "name": "conv2d_48"}], "input_layers": [["input_3", 0, 0]], "output_layers": [["conv2d_42", 0, 0], ["conv2d_45", 0, 0], ["conv2d_48", 0, 0]], "name": "model_2"}, "backend": "tensorflow"}